tflite_learn_897057_10.tflite (tflite, 637928 bytes, 54 tensors)

sequential/dense_1/MatMul i1 [2, 144] scale=0.0018578658 zero_point=0
000000 3a e8 dc 63 bd 0b ca 49 73 e3 e0 fd ee 4b d5 2f
       0.10775622 -0.044588782 -0.06688317 0.18392871 -0.124477014 0.020436523 -0.10032476 0.1356242 0.21365458 -0.05387811 -0.059451707 -0.0055735977 -0.033441585 0.13933994 -0.07988823 0.087319694
000010 68 bd e2 b1 59 48 56 c2 d2 b5 d3 4e 00 a8 ea 44
       0.19321805 -0.124477014 -0.055735976 -0.1467714 0.16535006 0.13376634 0.15977646 -0.11518768 -0.085461825 -0.13933994 -0.08360396 0.14491354 0.0 -0.16349219 -0.040873047 0.12633488
000020 0c 29 d4 40 9c 47 22 c3 e8 ec 41 19 c3 eb 44 eb
       0.022294391 0.0761725 -0.081746094 0.11890341 -0.18578659 0.13190848 0.06316744 -0.11332981 -0.044588782 -0.037157316 0.12076128 0.046446647 -0.11332981 -0.03901518 0.12633488 -0.03901518
000030 0d 27 11 f3 0b 49 25 a0 5c fb d0 ff 21 42 f8 3d
       0.024152257 0.07245677 0.03158372 -0.024152257 0.020436523 0.1356242 0.06874104 -0.17835513 0.17092365 -0.009289329 -0.089177564 -0.0018578658 0.061309572 0.122619145 -0.014862927 0.11332981
000040 5d 71 40 c6 58 e8 17 dd a6 98 3c fd 58 ff 9c ad
       0.17278153 0.20993884 0.11890341 -0.10775622 0.16349219 -0.044588782 0.042730913 -0.06502531 -0.16720793 -0.19321805 0.11147195 -0.0055735977 0.16349219 -0.0018578658 -0.18578659 -0.15420286
000050 0d 0e fe 24 53 17 f0 15 30 b8 be d6 44 b0 9b 15
       0.024152257 0.026010122 -0.0037157317 0.06688317 0.15420286 0.042730913 -0.029725853 0.03901518 0.089177564 -0.13376634 -0.122619145 -0.07803036 0.12633488 -0.14862926 -0.18764445 0.03901518
000060 da 65 98 a2 bb 9f d8 c2 d4 4d 25 d3 f7 fb 23 fc
       -0.0705989 0.18764445 -0.19321805 -0.17463939 -0.12819274 -0.18021299 -0.07431463 -0.11518768 -0.081746094 0.14305566 0.06874104 -0.08360396 -0.016720792 -0.009289329 0.06502531 -0.0074314633
000070 c2 04 dd 94 17 3a f7 95 f7 a5 9b 9f e8 ea 45 4a
       -0.11518768 0.0074314633 -0.06502531 -0.20064951 0.042730913 0.10775622 -0.016720792 -0.19879164 -0.016720792 -0.16906579 -0.18764445 -0.18021299 -0.044588782 -0.040873047 0.12819274 0.13748208
000080 c2 bc 60 00 71 c6 0c 9c fb 2e 5b fe e9 ed e0 eb
       -0.11518768 -0.12633488 0.17835513 0.0 0.20993884 -0.10775622 0.022294391 -0.18578659 -0.009289329 0.085461825 0.16906579 -0.0037157317 -0.042730913 -0.03529945 -0.059451707 -0.03901518
000090 3d 43 44 bc b5 4a fa 08 d2 f0 25 5a 75 29 23 ef
       0.11332981 0.124477014 0.12633488 -0.12633488 -0.13933994 0.13748208 -0.0111471955 0.014862927 -0.085461825 -0.029725853 0.06874104 0.16720793 0.2173703 0.0761725 0.06502531 -0.03158372
0000a0 da 00 c1 a1 b6 25 13 72 48 45 d3 f1 68 9f a2 e5
       -0.0705989 0.0 -0.117045544 -0.17649725 -0.13748208 0.06874104 0.03529945 0.2117967 0.13376634 0.12819274 -0.08360396 -0.027867988 0.19321805 -0.18021299 -0.17463939 -0.05016238
0000b0 69 64 a9 ae 12 6a c0 01 0d 9f c2 fd ca 01 fc e9
       0.19507591 0.18578659 -0.16163433 -0.152345 0.033441585 0.19693378 -0.11890341 0.0018578658 0.024152257 -0.18021299 -0.11518768 -0.0055735977 -0.10032476 0.0018578658 -0.0074314633 -0.042730913
0000c0 ff 49 ae e4 30 ad c4 5b d5 b3 aa 73 f4 25 f1 33
       -0.0018578658 0.1356242 -0.152345 -0.052020244 0.089177564 -0.15420286 -0.11147195 0.16906579 -0.07988823 -0.14305566 -0.15977646 0.21365458 -0.022294391 0.06874104 -0.027867988 0.09475116
0000d0 d0 07 fb 81 09 bc 36 23 4d d1 6c 3a 5f ef 6a a4
       -0.089177564 0.013005061 -0.009289329 -0.23594896 0.016720792 -0.12633488 0.10032476 0.06502531 0.14305566 -0.087319694 0.20064951 0.10775622 0.17649725 -0.03158372 0.19693378 -0.17092365
0000e0 de f7 04 3c cd ea 29 0e e8 32 d6 55 cc 6b 5d ed
       -0.06316744 -0.016720792 0.0074314633 0.11147195 -0.09475116 -0.040873047 0.0761725 0.026010122 -0.044588782 0.092893295 -0.07803036 0.1579186 -0.096609026 0.19879164 0.17278153 -0.03529945
0000f0 1d b6 46 34 2e 91 29 61 fe f2 47 d7 08 21 b1 32
       0.05387811 -0.13748208 0.13005061 0.096609026 0.085461825 -0.2062231 0.0761725 0.18021299 -0.0037157317 -0.026010122 0.13190848 -0.0761725 0.014862927 0.061309572 -0.1467714 0.092893295

sequential/dense/Tensordot/MatMul i1 [16, 1280] scale=0.0009151589 zero_point=0
000000 e7 e8 db 06 51 30 1f e8 44 51 05 49 da f9 b0 0c
       -0.022878973 -0.021963812 -0.033860877 0.005490953 0.07412787 0.043927625 0.028369926 -0.021963812 0.062230803 0.07412787 0.0045757946 0.0668066 -0.03477604 -0.006406112 -0.07321271 0.010981906
000010 1a 20 bd 1f ce c1 06 2e 24 f4 03 e3 d9 dc 33 e9
       0.023794131 0.029285084 -0.061315645 0.028369926 -0.045757946 -0.05765501 0.005490953 0.042097308 0.03294572 -0.010981906 0.0027454766 -0.026539607 -0.035691198 -0.03294572 0.046673104 -0.021048654
000020 e6 48 fc 32 d1 33 ef 3a ba 34 c3 1e 16 e3 25 2b
       -0.023794131 0.06589144 -0.0036606356 0.045757946 -0.043012466 0.046673104 -0.015557701 0.053079214 -0.06406112 0.047588263 -0.055824693 0.027454767 0.020133495 -0.026539607 0.033860877 0.039351832
000030 a6 ec 1d 2e 31 c1 d9 1b 42 c3 f8 07 f2 1d da 01
       -0.0823643 -0.018303178 0.026539607 0.042097308 0.044842787 -0.05765501 -0.035691198 0.02470929 0.060400486 -0.055824693 -0.007321271 0.006406112 -0.012812224 0.026539607 -0.03477604 0.0009151589
000040 34 cf b6 3e c5 25 1a 10 a8 e2 cd 32 a6 f5 05 ed
       0.047588263 -0.044842787 -0.067721754 0.05673985 -0.053994376 0.033860877 0.023794131 0.014642542 -0.08053398 -0.027454767 -0.046673104 0.045757946 -0.0823643 -0.010066748 0.0045757946 -0.01738802
000050 f9 0c b8 e4 bf 0a 2d 3f 2b 33 bb 44 54 37 ee f2
       -0.006406112 0.010981906 -0.06589144 -0.025624448 -0.059485327 0.009151589 0.04118215 0.05765501 0.039351832 0.046673104 -0.063145965 0.062230803 0.07687335 0.05033374 -0.01647286 -0.012812224
000060 f6 d4 db b8 dd 05 38 2e ce e3 ec 41 c3 3b 41 14
       -0.009151589 -0.04026699 -0.033860877 -0.06589144 -0.03203056 0.0045757946 0.051248897 0.042097308 -0.045757946 -0.026539607 -0.018303178 0.059485327 -0.055824693 0.053994376 0.059485327 0.018303178
000070 0e 16 1c 39 56 1c c0 08 dc 69 33 45 e0 30 1d 47
       0.012812224 0.020133495 0.025624448 0.052164055 0.078703664 0.025624448 -0.05857017 0.007321271 -0.03294572 0.09609168 0.046673104 0.063145965 -0.029285084 0.043927625 0.026539607 0.06497628
000080 e4 0e 03 27 1e f3 3a 3b 21 1e 66 32 35 08 a9 05
       -0.025624448 0.012812224 0.0027454766 0.035691198 0.027454767 -0.011897066 0.053079214 0.053994376 0.030200243 0.027454767 0.09334621 0.045757946 0.04850342 0.007321271 -0.07961883 0.0045757946
000090 3f f5 b6 35 05 30 33 37 c7 ef 10 40 d0 bd 15 fb
       0.05765501 -0.010066748 -0.067721754 0.04850342 0.0045757946 0.043927625 0.046673104 0.05033374 -0.052164055 -0.015557701 0.014642542 0.05857017 -0.043927625 -0.061315645 0.019218337 -0.0045757946
0000a0 21 0a fe d0 34 10 f4 10 e6 fd da 50 ca 41 53 f0
       0.030200243 0.009151589 -0.0018303178 -0.043927625 0.047588263 0.014642542 -0.010981906 0.014642542 -0.023794131 -0.0027454766 -0.03477604 0.07321271 -0.04941858 0.059485327 0.075958185 -0.014642542
0000b0 11 21 43 f9 f9 f2 af 2d ec 4e 34 e8 11 ce 0c 11
       0.015557701 0.030200243 0.061315645 -0.006406112 -0.006406112 -0.012812224 -0.07412787 0.04118215 -0.018303178 0.071382396 0.047588263 -0.021963812 0.015557701 -0.045757946 0.010981906 0.015557701
0000c0 fa 36 c2 d7 4a da 33 c1 da 35 37 1e 0b 28 e0 c1
       -0.005490953 0.04941858 -0.05673985 -0.037521515 0.067721754 -0.03477604 0.046673104 -0.05765501 -0.03477604 0.04850342 0.05033374 0.027454767 0.010066748 0.036606357 -0.029285084 -0.05765501
0000d0 28 07 c8 33 19 b5 f2 39 ff 10 d4 02 1c 1e ef d0
       0.036606357 0.006406112 -0.051248897 0.046673104 0.022878973 -0.06863692 -0.012812224 0.052164055 -0.0009151589 0.014642542 -0.04026699 0.0018303178 0.025624448 0.027454767 -0.015557701 -0.043927625
0000e0 1c c0 25 03 c4 67 dc d6 fa d3 ea 21 1a 1c ff 51
       0.025624448 -0.05857017 0.033860877 0.0027454766 -0.054909535 0.09426136 -0.03294572 -0.038436674 -0.005490953 -0.04118215 -0.020133495 0.030200243 0.023794131 0.025624448 -0.0009151589 0.07412787
0000f0 e1 ca bb d0 b4 0b c6 b1 18 da f1 21 36 0a 2e df
       -0.028369926 -0.04941858 -0.063145965 -0.043927625 -0.06955208 0.010066748 -0.053079214 -0.07229755 0.021963812 -0.03477604 -0.013727384 0.030200243 0.04941858 0.009151589 0.042097308 -0.030200243

sequential/model/Conv_1/Conv2D i1 [1280, 1, 1, 112]
000000 db 24 c1 be 77 7f f5 e3 e6 fa cd bd 16 8d 48 0a
       -37 36 -63 -66 119 127 -11 -29 -26 -6 -51 -67 22 -115 72 10
000010 41 5f fb ed ab 74 07 c8 b4 00 d8 13 e1 16 dc 25
       65 95 -5 -19 -85 116 7 -56 -76 0 -40 19 -31 22 -36 37
000020 12 e1 29 56 15 fe 19 09 f4 18 36 ac 15 1f 27 12
       18 -31 41 86 21 -2 25 9 -12 24 54 -84 21 31 39 18
000030 f4 d0 07 37 54 02 e0 0a 23 13 3a d9 0a 2f d8 f9
       -12 -48 7 55 84 2 -32 10 35 19 58 -39 10 47 -40 -7
000040 14 b8 e2 03 1b e4 d6 d9 f8 0f e0 de ee 58 fd 1a
       20 -72 -30 3 27 -28 -42 -39 -8 15 -32 -34 -18 88 -3 26
000050 09 15 c8 57 4b 38 4d 21 21 16 1d 8e 57 f5 0b fa
       9 21 -56 87 75 56 77 33 33 22 29 -114 87 -11 11 -6
000060 fb d9 18 e6 15 23 f7 1f 1c 64 2d e8 c3 31 dc d7
       -5 -39 24 -26 21 35 -9 31 28 100 45 -24 -61 49 -36 -41
000070 17 28 15 1e ff 09 f9 32 57 01 b8 0a b2 ef 1d ff
       23 40 21 30 -1 9 -7 50 87 1 -72 10 -78 -17 29 -1
000080 05 05 fe ee 02 e3 1f 25 14 dc b0 df 31 40 17 81
       5 5 -2 -18 2 -29 31 37 20 -36 -80 -33 49 64 23 -127
000090 30 ee 31 e0 d7 aa 8a ff e4 09 34 27 eb e3 cb 15
       48 -18 49 -32 -41 -86 -118 -1 -28 9 52 39 -21 -29 -53 21
0000a0 24 c9 f5 19 39 c5 aa 11 bc fc 09 27 dc 35 05 e0
       36 -55 -11 25 57 -59 -86 17 -68 -4 9 39 -36 53 5 -32
0000b0 0d d1 01 ba 29 ef 5e 1f 1c f6 07 ed cd 29 29 20
       13 -47 1 -70 41 -17 94 31 28 -10 7 -19 -51 41 41 32
0000c0 d9 0d 1a f7 de cc 33 00 24 04 e4 ae aa 12 16 f1
       -39 13 26 -9 -34 -52 51 0 36 4 -28 -82 -86 18 22 -15
0000d0 d6 fc cf eb 1b f3 68 d0 85 e8 fd ee fe ef 1f 09
       -42 -4 -49 -21 27 -13 104 -48 -123 -24 -3 -18 -2 -17 31 9
0000e0 c7 26 b4 e7 d8 c5 e9 df e2 a0 c6 a9 1a d7 42 6b
       -57 38 -76 -25 -40 -59 -23 -33 -30 -96 -58 -87 26 -41 66 107
0000f0 f3 ee 8b 0b c0 d3 e5 3d fe f6 2d de 10 1f a8 2d
       -13 -18 -117 11 -64 -45 -27 61 -2 -10 45 -34 16 31 -88 45

sequential/model/block_16_project/Conv2D i1 [112, 1, 1, 336]
000000 dc fb 1f e4 12 db ea 1a 11 34 01 0c 27 1c 35 e8
       -36 -5 31 -28 18 -37 -22 26 17 52 1 12 39 28 53 -24
000010 14 fd 06 1c de 25 10 46 18 f0 0d ef 0b ef 27 b0
       20 -3 6 28 -34 37 16 70 24 -16 13 -17 11 -17 39 -80
000020 ed f1 fb 25 fe ff 0c 19 0d ad fa e2 f8 d4 27 46
       -19 -15 -5 37 -2 -1 12 25 13 -83 -6 -30 -8 -44 39 70
000030 e4 39 ea 0c b9 04 ec 11 d5 70 f6 1e 00 04 04 0c
       -28 57 -22 12 -71 4 -20 17 -43 112 -10 30 0 4 4 12
000040 b7 0b 0e 17 f5 03 19 20 f9 dd 3c e2 07 e5 11 17
       -73 11 14 23 -11 3 25 32 -7 -35 60 -30 7 -27 17 23
000050 22 27 da 01 d4 d3 fe e9 f3 30 19 10 02 10 07 35
       34 39 -38 1 -44 -45 -2 -23 -13 48 25 16 2 16 7 53
000060 ee 25 28 0b c8 09 0f 13 db ec e7 f7 2d ed e6 26
       -18 37 40 11 -56 9 15 19 -37 -20 -25 -9 45 -19 -26 38
000070 de 51 f9 2a e0 28 09 7f e9 4c 04 d2 fa 00 09 28
       -34 81 -7 42 -32 40 9 127 -23 76 4 -46 -6 0 9 40
000080 d7 43 b6 f1 e9 37 d7 2c 08 0f 2f 16 f0 19 16 f3
       -41 67 -74 -15 -23 55 -41 44 8 15 47 22 -16 25 22 -13
000090 1a d6 0e fb f4 29 01 04 31 e6 de c5 e8 32 f7 2a
       26 -42 14 -5 -12 41 1 4 49 -26 -34 -59 -24 50 -9 42
0000a0 11 34 18 ec 18 20 0d 15 14 e1 1c bf ec ec 2a 03
       17 52 24 -20 24 32 13 21 20 -31 28 -65 -20 -20 42 3
0000b0 fb 15 04 2c de ee d4 c4 0e eb 1d fb 21 55 fa 2c
       -5 21 4 44 -34 -18 -44 -60 14 -21 29 -5 33 85 -6 44
0000c0 d6 fd 2c 01 f6 29 17 e1 92 19 cf 92 2f 0d ec 31
       -42 -3 44 1 -10 41 23 -31 -110 25 -49 -110 47 13 -20 49
0000d0 50 cf 24 0a e1 e3 25 13 0c 2c f7 fc 17 ee d6 c5
       80 -49 36 10 -31 -29 37 19 12 44 -9 -4 23 -18 -42 -59
0000e0 ee eb 09 2d 14 8e f1 22 15 0e 32 fc f3 f4 09 24
       -18 -21 9 45 20 -114 -15 34 21 14 50 -4 -13 -12 9 36
0000f0 b2 21 15 f5 08 f8 0d 10 f0 f9 32 eb 2c 0e 06 12
       -78 33 21 -11 8 -8 13 16 -16 -7 50 -21 44 14 6 18

sequential/model/block_16_depthwise_BN/FusedBatchNormV3;sequential/model/block_16_depthwise/depthwise i1 [1, 3, 3, 336]
000000 08 29 24 11 ff 4e d1 fb 30 c0 cb 1f 70 1f 2b 01
       8 41 36 17 -1 78 -47 -5 48 -64 -53 31 112 31 43 1
000010 4b c7 e3 21 21 92 fd ef 2d 28 23 0a 19 af fb d8
       75 -57 -29 33 33 -110 -3 -17 45 40 35 10 25 -81 -5 -40
000020 fb 19 17 69 1a f7 ed ea e9 e8 15 e3 b2 38 e2 ab
       -5 25 23 105 26 -9 -19 -22 -23 -24 21 -29 -78 56 -30 -85
000030 7c 7f ef 6a 1f c8 e9 e8 61 f7 02 e8 0d a0 26 14
       124 127 -17 106 31 -56 -23 -24 97 -9 2 -24 13 -96 38 20
000040 59 be cd 10 22 03 da 07 2b 1a ed 1a 48 1f fc e3
       89 -66 -51 16 34 3 -38 7 43 26 -19 26 72 31 -4 -29
000050 e6 1c 78 11 8a e3 0f f9 b6 2a 24 2c d2 df 2e 2b
       -26 28 120 17 -118 -29 15 -7 -74 42 36 44 -46 -33 46 43
000060 0d 16 4a 3f 04 00 1d 78 e0 07 7f 49 1a 09 43 99
       13 22 74 63 4 0 29 120 -32 7 127 73 26 9 67 -103
000070 05 7f ec f5 7f 02 7f 14 13 cf be 23 72 f8 1c d9
       5 127 -20 -11 127 2 127 20 19 -49 -66 35 114 -8 28 -39
000080 3d 00 6f f9 0f de 1f 16 0e bb e1 ff 06 72 20 ad
       61 0 111 -7 15 -34 31 22 14 -69 -31 -1 6 114 32 -83
000090 06 08 3d d0 0c ff d5 10 27 c0 5b ef 0f 2e 38 f2
       6 8 61 -48 12 -1 -43 16 39 -64 91 -17 15 46 56 -14
0000a0 7f cf 40 4e 17 7f 3f ff 14 b6 7f 03 09 07 38 19
       127 -49 64 78 23 127 63 -1 20 -74 127 3 9 7 56 25
0000b0 f8 d8 6c ba 19 18 fa 29 f8 fc 32 ff 01 39 e5 e2
       -8 -40 108 -70 25 24 -6 41 -8 -4 50 -1 1 57 -27 -30
0000c0 f3 06 14 8c ee 5a 50 25 2b 26 67 15 28 66 fc 05
       -13 6 20 -116 -18 90 80 37 43 38 103 21 40 102 -4 5
0000d0 32 ab db 06 f3 8b 41 b3 f7 7f 23 e2 22 16 18 13
       50 -85 -37 6 -13 -117 65 -77 -9 127 35 -30 34 22 24 19
0000e0 12 f0 22 0c fd 06 15 b6 7c 1a 1b 27 2c f7 7e 56
       18 -16 34 12 -3 6 21 -74 124 26 27 39 44 -9 126 86
0000f0 20 f1 e3 36 1f ee 0d 14 20 04 f3 1c 39 e9 da 07
       32 -15 -29 54 31 -18 13 20 32 4 -13 28 57 -23 -38 7

sequential/model/block_16_expand/Conv2D i1 [336, 1, 1, 56]
000000 16 fb fb 11 09 de ff f4 fb f3 fc f1 08 0e 00 0c
       22 -5 -5 17 9 -34 -1 -12 -5 -13 -4 -15 8 14 0 12
000010 f3 08 e4 0a 13 ec 11 f8 f9 e0 06 04 14 fe 0d 07
       -13 8 -28 10 19 -20 17 -8 -7 -32 6 4 20 -2 13 7
000020 d7 f6 11 f6 05 ff 30 0a f6 f1 3d 00 0b fd f5 14
       -41 -10 17 -10 5 -1 48 10 -10 -15 61 0 11 -3 -11 20
000030 f9 f5 e0 7f 09 0b 0b f7 07 cd d1 b8 b1 d9 01 1a
       -7 -11 -32 127 9 11 11 -9 7 -51 -47 -72 -79 -39 1 26
000040 f8 df fe 5f 04 1b 22 17 5a 09 16 26 1e 17 2f 0f
       -8 -33 -2 95 4 27 34 23 90 9 22 38 30 23 47 15
000050 04 2f e9 e3 92 32 3e 14 7f 31 fd ca 08 9e a6 fd
       4 47 -23 -29 -110 50 62 20 127 49 -3 -54 8 -98 -90 -3
000060 e4 48 db 21 04 4b ea 4f 06 1d 2e f8 e2 0a 03 22
       -28 72 -37 33 4 75 -22 79 6 29 46 -8 -30 10 3 34
000070 c4 aa 21 ca e7 59 ed 0d e8 35 bb 0c b9 23 d8 25
       -60 -86 33 -54 -25 89 -19 13 -24 53 -69 12 -71 35 -40 37
000080 32 04 51 e4 56 18 44 d3 0e c4 38 c0 a7 1b 40 3d
       50 4 81 -28 86 24 68 -45 14 -60 56 -64 -89 27 64 61
000090 ce c3 f1 d9 ec ba 07 d9 54 8e fd f4 0a 81 d9 c8
       -50 -61 -15 -39 -20 -70 7 -39 84 -114 -3 -12 10 -127 -39 -56
0000a0 14 46 ee ab c5 e6 26 4c 38 0d e9 c9 34 e9 09 e5
       20 70 -18 -85 -59 -26 38 76 56 13 -23 -55 52 -23 9 -27
0000b0 f4 03 c8 cb 34 7f fa fb 18 eb f1 e5 dd d8 f3 d0
       -12 3 -56 -53 52 127 -6 -5 24 -21 -15 -27 -35 -40 -13 -48
0000c0 ee ee 37 da 1d 4d 07 e6 1b 41 35 24 f4 31 2d dd
       -18 -18 55 -38 29 77 7 -26 27 65 53 36 -12 49 45 -35
0000d0 09 26 e7 3f 0a 1a e4 21 0d 49 04 22 ff e6 3b 03
       9 38 -25 63 10 26 -28 33 13 73 4 34 -1 -26 59 3
0000e0 e8 1f 31 2f f3 f0 ff f7 f6 f8 b7 ce d2 47 16 df
       -24 31 49 47 -13 -16 -1 -9 -10 -8 -73 -50 -46 71 22 -33
0000f0 c5 7f e4 4f a3 d3 38 ca a5 29 04 c2 5b e6 fc 08
       -59 127 -28 79 -93 -45 56 -54 -91 41 4 -62 91 -26 -4 8

sequential/model/block_15_project/Conv2D i1 [56, 1, 1, 336]
000000 ea 93 1e b5 22 01 04 d0 d7 e9 fc e8 5a 05 eb 4a
       -22 -109 30 -75 34 1 4 -48 -41 -23 -4 -24 90 5 -21 74
000010 ee 0f 04 e1 eb d4 d7 18 f7 d8 ea 07 f8 18 f4 17
       -18 15 4 -31 -21 -44 -41 24 -9 -40 -22 7 -8 24 -12 23
000020 f0 06 93 05 28 06 b9 35 f9 fb 00 12 1c e8 2a e5
       -16 6 -109 5 40 6 -71 53 -7 -5 0 18 28 -24 42 -27
000030 3f d1 10 33 c9 1b 1c 25 d1 e4 f0 f7 e5 10 ef 02
       63 -47 16 51 -55 27 28 37 -47 -28 -16 -9 -27 16 -17 2
000040 f1 dd 03 26 df ba fb fc f7 cd 2d e8 10 25 0b f5
       -15 -35 3 38 -33 -70 -5 -4 -9 -51 45 -24 16 37 11 -11
000050 1c ec ca 1d ad 1d f4 21 0f 26 00 e2 03 79 23 0a
       28 -20 -54 29 -83 29 -12 33 15 38 0 -30 3 121 35 10
000060 02 1b 08 f3 ca 49 58 14 f2 0a 2c d9 31 13 35 2b
       2 27 8 -13 -54 73 88 20 -14 10 44 -39 49 19 53 43
000070 01 15 f3 e0 a4 e9 dd e1 1c 02 81 13 fd 21 e4 e7
       1 21 -13 -32 -92 -23 -35 -31 28 2 -127 19 -3 33 -28 -25
000080 25 0a 58 00 ae e9 0f f4 f8 0f d5 0d 0c 16 09 bb
       37 10 88 0 -82 -23 15 -12 -8 15 -43 13 12 22 9 -69
000090 22 e9 f2 0b d3 eb f8 e8 f5 1e ee c8 02 5f d6 e3
       34 -23 -14 11 -45 -21 -8 -24 -11 30 -18 -56 2 95 -42 -29
0000a0 01 16 d6 1e 28 de e3 ef f2 12 17 ed df 26 eb 2f
       1 22 -42 30 40 -34 -29 -17 -14 18 23 -19 -33 38 -21 47
0000b0 f6 ec f8 04 0c db 22 ff a7 10 f9 0a 2b fb 2a f0
       -10 -20 -8 4 12 -37 34 -1 -89 16 -7 10 43 -5 42 -16
0000c0 00 fc f9 ea d5 f2 f3 f6 a7 0f 00 11 d4 f7 32 46
       0 -4 -7 -22 -43 -14 -13 -10 -89 15 0 17 -44 -9 50 70
0000d0 db f9 fb f7 34 af 1e 21 11 f9 23 27 22 ff e3 dd
       -37 -7 -5 -9 52 -81 30 33 17 -7 35 39 34 -1 -29 -35
0000e0 bd de f5 f4 47 f4 e9 ec 28 07 ff d3 cf 10 fa 09
       -67 -34 -11 -12 71 -12 -23 -20 40 7 -1 -45 -49 16 -6 9
0000f0 00 fe 90 e7 f0 26 c9 1f 04 0d 28 2c d7 d7 f3 e1
       0 -2 -112 -25 -16 38 -55 31 4 13 40 44 -41 -41 -13 -31

sequential/model/block_15_depthwise_BN/FusedBatchNormV3;sequential/model/block_15_depthwise/depthwise;sequential/model/block_16_depthwise/depthwise i1 [1, 3, 3, 336]
000000 f1 12 00 24 bb 7c 33 2d d4 fb de 09 20 cb 1c 13
       -15 18 0 36 -69 124 51 45 -44 -5 -34 9 32 -53 28 19
000010 e0 c0 35 f8 f7 14 32 1b dc 27 6e 19 df f4 4c fd
       -32 -64 53 -8 -9 20 50 27 -36 39 110 25 -33 -12 76 -3
000020 39 1f f1 de fd cc 0f 21 7f 21 3b 04 cf 20 fc 3d
       57 31 -15 -34 -3 -52 15 33 127 33 59 4 -49 32 -4 61
000030 1d 26 0e ee 07 28 21 a8 a9 10 d5 ea 05 eb 7f 27
       29 38 14 -18 7 40 33 -88 -87 16 -43 -22 5 -21 127 39
000040 0a b1 09 2b 25 16 6b 17 23 bd ec 92 2f f7 09 23
       10 -79 9 43 37 22 107 23 35 -67 -20 -110 47 -9 9 35
000050 09 00 07 e6 7a 47 27 c4 f8 a1 12 16 04 66 f0 eb
       9 0 7 -26 122 71 39 -60 -8 -95 18 22 4 102 -16 -21
000060 87 08 23 e6 04 0f 43 f3 23 e0 f0 18 2d 37 d3 f9
       -121 8 35 -26 4 15 67 -13 35 -32 -16 24 45 55 -45 -7
000070 fd 22 66 1d e8 db 00 cb 39 19 7b 22 14 1c d6 1e
       -3 34 102 29 -24 -37 0 -53 57 25 123 34 20 28 -42 30
000080 1c db 03 28 12 2c 19 47 ee 72 f4 1e 52 f3 f1 29
       28 -37 3 40 18 44 25 71 -18 114 -12 30 82 -13 -15 41
000090 2a 05 c9 0e cb 0a 19 e3 bc 67 ed 0c 09 29 14 ee
       42 5 -55 14 -53 10 25 -29 -68 103 -19 12 9 41 20 -18
0000a0 11 cf fe c9 f3 0d 56 f2 01 05 81 27 03 2c 51 3b
       17 -49 -2 -55 -13 13 86 -14 1 5 -127 39 3 44 81 59
0000b0 35 08 11 c3 08 71 29 05 f4 e5 e0 2b fc 10 e8 e8
       53 8 17 -61 8 113 41 5 -12 -27 -32 43 -4 16 -24 -24
0000c0 d3 09 36 e2 0f f0 ff 12 20 34 3d 01 be be fd 3c
       -45 9 54 -30 15 -16 -1 18 32 52 61 1 -66 -66 -3 60
0000d0 f8 04 38 79 e1 01 ef 9c ff f8 2a 0d e8 e8 ba e2
       -8 4 56 121 -31 1 -17 -100 -1 -8 42 13 -24 -24 -70 -30
0000e0 05 47 ee c8 04 c1 f2 02 ea 4f e6 08 e9 07 03 fa
       5 71 -18 -56 4 -63 -14 2 -22 79 -26 8 -23 7 3 -6
0000f0 e7 17 3f d0 14 24 2a e1 0f 27 1c 11 02 09 31 16
       -25 23 63 -48 20 36 42 -31 15 39 28 17 2 9 49 22

sequential/model/block_15_expand/Conv2D i1 [336, 1, 1, 56]
000000 09 31 07 13 ff c6 af c5 2a bc 10 e1 e5 50 1a 81
       9 49 7 19 -1 -58 -81 -59 42 -68 16 -31 -27 80 26 -127
000010 13 06 51 cc 08 e8 e6 db 20 fd 16 22 7e f5 0b 13
       19 6 81 -52 8 -24 -26 -37 32 -3 22 34 126 -11 11 19
000020 ce 75 d4 58 10 b8 2e 0d 0e 0e f7 45 14 aa 1b d3
       -50 117 -44 88 16 -72 46 13 14 14 -9 69 20 -86 27 -45
000030 42 db 03 36 d6 96 01 ad b9 68 f3 f8 29 f9 15 f0
       66 -37 3 54 -42 -106 1 -83 -71 104 -13 -8 41 -7 21 -16
000040 02 1e ff dd 0b f6 f5 1e d7 43 fd e6 13 0d 08 f3
       2 30 -1 -35 11 -10 -11 30 -41 67 -3 -26 19 13 8 -13
000050 e3 0d 3c 38 08 ac 7d da 20 db d9 53 f2 0f fc 12
       -29 13 60 56 8 -84 125 -38 32 -37 -39 83 -14 15 -4 18
000060 81 31 2a 05 b5 04 a8 28 ed ea f6 ea 43 f3 09 0d
       -127 49 42 5 -75 4 -88 40 -19 -22 -10 -22 67 -13 9 13
000070 c5 92 ef f5 20 f6 20 0a 09 07 58 0e 1c b7 16 7f
       -59 -110 -17 -11 32 -10 32 10 9 7 88 14 28 -73 22 127
000080 35 02 a1 bd ea e0 ed f9 cb 59 af df 25 30 b5 02
       53 2 -95 -67 -22 -32 -19 -7 -53 89 -81 -33 37 48 -75 2
000090 24 94 d6 3c 0c 28 10 dc dc 13 0a 26 02 1f b1 18
       36 -108 -42 60 12 40 16 -36 -36 19 10 38 2 31 -79 24
0000a0 3c 39 14 c2 f6 01 05 33 81 cc 1f 0c 1c ee 0c 16
       60 57 20 -62 -10 1 5 51 -127 -52 31 12 28 -18 12 22
0000b0 1d c0 7c 05 1c cc 05 f6 01 ec 1a cb 0a 43 ce 99
       29 -64 124 5 28 -52 5 -10 1 -20 26 -53 10 67 -50 -103
0000c0 fd 0e 1b da b9 db f4 e3 62 10 5d df 23 dd d5 21
       -3 14 27 -38 -71 -37 -12 -29 98 16 93 -33 35 -35 -43 33
0000d0 fd e7 05 b4 db 07 55 f4 75 4a 9b db 15 31 be d5
       -3 -25 5 -76 -37 7 85 -12 117 74 -101 -37 21 49 -66 -43
0000e0 d7 b3 e9 b9 1d d4 64 af 0f 20 1c d5 f6 01 f4 e8
       -41 -77 -23 -71 29 -44 100 -81 15 32 28 -43 -10 1 -12 -24
0000f0 a8 4d 02 34 d0 fe f3 a7 50 22 fd cb 81 49 c1 c9
       -88 77 2 52 -48 -2 -13 -89 80 34 -3 -53 -127 73 -63 -55

sequential/model/block_14_project/Conv2D i1 [56, 1, 1, 336]
000000 fe fc f1 c2 39 da ed f2 04 e0 f7 f2 0a f4 de bb
       -2 -4 -15 -62 57 -38 -19 -14 4 -32 -9 -14 10 -12 -34 -69
000010 f0 d9 0d d4 c7 00 f3 27 0d 28 d4 d2 ca e6 0a 12
       -16 -39 13 -44 -57 0 -13 39 13 40 -44 -46 -54 -26 10 18
000020 01 50 20 d2 04 e4 10 fe 08 11 d7 43 0b 12 11 06
       1 80 32 -46 4 -28 16 -2 8 17 -41 67 11 18 17 6
000030 f5 27 32 f7 f4 df 46 da f6 e4 f0 0e e2 10 2c 09
       -11 39 50 -9 -12 -33 70 -38 -10 -28 -16 14 -30 16 44 9
000040 18 e1 38 f1 f9 16 0e cb f0 48 fa 0b c7 fc 29 e9
       24 -31 56 -15 -7 22 14 -53 -16 72 -6 11 -57 -4 41 -23
000050 49 cf da f8 09 f3 fb 11 02 55 34 04 2b bf 2d f8
       73 -49 -38 -8 9 -13 -5 17 2 85 52 4 43 -65 45 -8
000060 e9 f7 29 24 00 bb ee 53 1f 12 10 34 01 f4 1f ee
       -23 -9 41 36 0 -69 -18 83 31 18 16 52 1 -12 31 -18
000070 1b 02 c1 0c d4 1e a5 f5 2a c1 ed ca 32 0c f1 39
       27 2 -63 12 -44 30 -91 -11 42 -63 -19 -54 50 12 -15 57
000080 c7 06 20 58 d6 3b 03 f2 2f f3 f2 de 01 1f 13 f3
       -57 6 32 88 -42 59 3 -14 47 -13 -14 -34 1 31 19 -13
000090 c3 0c ee d6 0b e0 cb 4e 7f 4d 24 f9 3b e3 da e9
       -61 12 -18 -42 11 -32 -53 78 127 77 36 -7 59 -29 -38 -23
0000a0 10 f9 34 d6 a8 de ed ac 06 f7 07 0d fd 28 c1 c7
       16 -7 52 -42 -88 -34 -19 -84 6 -9 7 13 -3 40 -63 -57
0000b0 f2 00 07 c6 11 dc 24 f6 c8 06 cf 39 f8 f6 37 10
       -14 0 7 -58 17 -36 36 -10 -56 6 -49 57 -8 -10 55 16
0000c0 ce d6 b5 f7 cc ea d3 e5 ca c5 fd 17 10 2e 0d 16
       -50 -42 -75 -9 -52 -22 -45 -27 -54 -59 -3 23 16 46 13 22
0000d0 22 22 06 ea fe eb f7 fa 06 04 06 b2 e6 22 19 0f
       34 34 6 -22 -2 -21 -9 -6 6 4 6 -78 -26 34 25 15
0000e0 6c fc c7 cd e0 f4 d4 c5 05 ff f4 05 de 0c 10 f4
       108 -4 -57 -51 -32 -12 -44 -59 5 -1 -12 5 -34 12 16 -12
0000f0 1c 38 ee 21 d8 f3 c6 fd 10 14 0e b8 38 2a ec eb
       28 56 -18 33 -40 -13 -58 -3 16 20 14 -72 56 42 -20 -21

sequential/model/block_14_depthwise_BN/FusedBatchNormV3;sequential/model/block_14_depthwise/depthwise;sequential/model/block_16_depthwise/depthwise i1 [1, 3, 3, 336]
000000 73 97 18 17 0a f0 2f 0a 0b fc 3f 0a 19 11 b5 fb
       115 -105 24 23 10 -16 47 10 11 -4 63 10 25 17 -75 -5
000010 1f 2b fb 43 81 e2 d4 c5 e0 01 2d 3d 0d 42 18 77
       31 43 -5 67 -127 -30 -44 -59 -32 1 45 61 13 66 24 119
000020 b8 f2 c4 95 9e b0 d6 8e bf 77 d9 87 b8 27 cd f9
       -72 -14 -60 -107 -98 -80 -42 -114 -65 119 -39 -121 -72 39 -51 -7
000030 0a 16 02 a6 1c 25 c0 8e d1 47 10 3f 02 06 a9 01
       10 22 2 -90 28 37 -64 -114 -47 71 16 63 2 6 -87 1
000040 f3 00 c2 02 0a 04 f8 e9 00 1d 6d 07 18 00 15 cb
       -13 0 -62 2 10 4 -8 -23 0 29 109 7 24 0 21 -53
000050 05 38 23 f1 f3 1a 0e 0e e3 c7 94 e2 02 00 ec fd
       5 56 35 -15 -13 26 14 14 -29 -57 -108 -30 2 0 -20 -3
000060 7f 25 28 d6 18 5f f6 18 15 0c 7f e1 23 8e ca 17
       127 37 40 -42 24 95 -10 24 21 12 127 -31 35 -114 -54 23
000070 07 7a 13 e6 0a ef e8 1f 0e f6 5c 13 dd 16 f5 28
       7 122 19 -26 10 -17 -24 31 14 -10 92 19 -35 22 -11 40
000080 44 f1 0a 2f 00 5d df 15 e4 f6 d5 43 d3 6d d2 ee
       68 -15 10 47 0 93 -33 21 -28 -10 -43 67 -45 109 -46 -18
000090 16 f5 2c 67 15 14 4f 28 14 f4 ef f7 01 0d ef c3
       22 -11 44 103 21 20 79 40 20 -12 -17 -9 1 13 -17 -61
0000a0 ed 68 dc f7 0e 01 24 de a5 36 2e 3e 8b ed 03 31
       -19 104 -36 -9 14 1 36 -34 -91 54 46 62 -117 -19 3 49
0000b0 dd fb 01 e9 30 92 2d 0f 27 1e 33 2b fd 1a c0 14
       -35 -5 1 -23 48 -110 45 15 39 30 51 43 -3 26 -64 20
0000c0 ef 31 f4 7b 2d ff 9b fd c5 18 d5 fd f8 03 1b 1f
       -17 49 -12 123 45 -1 -101 -3 -59 24 -43 -3 -8 3 27 31
0000d0 08 df b0 0a 63 ff 4b 04 2f 02 10 e7 35 e9 f5 c9
       8 -33 -80 10 99 -1 75 4 47 2 16 -25 53 -23 -11 -55
0000e0 1d c3 e7 31 09 45 0f 07 ec fd 14 06 dc ec e2 fa
       29 -61 -25 49 9 69 15 7 -20 -3 20 6 -36 -20 -30 -6
0000f0 0f 47 14 2c f8 46 68 44 0e ea 92 4c 08 df 60 ac
       15 71 20 44 -8 70 104 68 14 -22 -110 76 8 -33 96 -84

sequential/model/block_14_expand/Conv2D i1 [336, 1, 1, 56]
000000 a9 ac 65 54 1d c5 13 1e 37 fa f2 f5 4b bb d7 16
       -87 -84 101 84 29 -59 19 30 55 -6 -14 -11 75 -69 -41 22
000010 be 34 15 ea e7 e4 c6 33 d1 21 f2 2f 0e 2e f3 a2
       -66 52 21 -22 -25 -28 -58 51 -47 33 -14 47 14 46 -13 -94
000020 05 6c 01 20 2d d3 6a e3 5f eb e2 31 12 e8 f9 04
       5 108 1 32 45 -45 106 -29 95 -21 -30 49 18 -24 -7 4
000030 1e 7f fa f0 25 e4 33 11 f7 23 15 fd 26 d6 da f8
       30 127 -6 -16 37 -28 51 17 -9 35 21 -3 38 -42 -38 -8
000040 08 2c ee 4b 1b b7 08 02 f6 f0 26 1d 0e df 10 d9
       8 44 -18 75 27 -73 8 2 -10 -16 38 29 14 -33 16 -39
000050 0f ea c3 cd 24 1b d4 f7 11 e3 0e f8 24 46 fd 3c
       15 -22 -61 -51 36 27 -44 -9 17 -29 14 -8 36 70 -3 60
000060 e1 d6 f5 d5 0a f5 12 cd 00 c2 36 2d c2 d2 7f 2a
       -31 -42 -11 -43 10 -11 18 -51 0 -62 54 45 -62 -46 127 42
000070 10 d0 05 d4 01 2f b8 12 23 0a cc fd 24 ab 11 ea
       16 -48 5 -44 1 47 -72 18 35 10 -52 -3 36 -85 17 -22
000080 1b 03 2f 40 33 c5 10 2d d8 63 04 1d 16 fc 2f db
       27 3 47 64 51 -59 16 45 -40 99 4 29 22 -4 47 -37
000090 ed 30 0a 24 0b 6e 0f d5 04 03 c7 5e 26 11 f4 16
       -19 48 10 36 11 110 15 -43 4 3 -57 94 38 17 -12 22
0000a0 c7 52 d0 e6 15 d8 81 c9 03 2a 48 c1 a8 e6 da 3b
       -57 82 -48 -26 21 -40 -127 -55 3 42 72 -63 -88 -26 -38 59
0000b0 d5 f7 a9 df 0c 52 bb 81 c5 f0 b6 eb 30 d5 fd dc
       -43 -9 -87 -33 12 82 -69 -127 -59 -16 -74 -21 48 -43 -3 -36
0000c0 2d ce 38 f8 30 ed d3 0a 23 88 f8 13 1b f6 18 b2
       45 -50 56 -8 48 -19 -45 10 35 -120 -8 19 27 -10 24 -78
0000d0 0b 00 1a 33 6c b8 a1 f9 ff 46 d5 0d f5 e0 03 2d
       11 0 26 51 108 -72 -95 -7 -1 70 -43 13 -11 -32 3 45
0000e0 d3 ff 3e a6 e2 af 10 ff 16 0a 26 fe 23 68 19 19
       -45 -1 62 -90 -30 -81 16 -1 22 10 38 -2 35 104 25 25
0000f0 01 1e 34 ed 28 0a fe 26 14 f0 e4 0c 69 09 81 ee
       1 30 52 -19 40 10 -2 38 20 -16 -28 12 105 9 -127 -18

sequential/model/block_13_project/Conv2D i1 [56, 1, 1, 192]
000000 d8 dd 14 2d 0f 04 0d ff d1 57 17 f9 4b 1b 3b ac
       -40 -35 20 45 15 4 13 -1 -47 87 23 -7 75 27 59 -84
000010 0b 3d 11 ee 44 f9 e9 51 e0 e3 bd f7 e9 27 b4 bc
       11 61 17 -18 68 -7 -23 81 -32 -29 -67 -9 -23 39 -76 -68
000020 33 f7 17 da 0d c8 6d e9 0e c6 27 50 27 81 09 00
       51 -9 23 -38 13 -56 109 -23 14 -58 39 80 39 -127 9 0
000030 dd d9 1e 0d 1f 23 0b d9 f6 12 fa 09 53 1c 1b a4
       -35 -39 30 13 31 35 11 -39 -10 18 -6 9 83 28 27 -92
000040 10 b9 cc c8 04 f3 12 18 07 f3 ea e6 f1 26 3e 2d
       16 -71 -52 -56 4 -13 18 24 7 -13 -22 -26 -15 38 62 45
000050 c8 82 3f e0 03 41 f0 d2 0b 09 f0 d4 1d f7 5f 36
       -56 -126 63 -32 3 65 -16 -46 11 9 -16 -44 29 -9 95 54
000060 fd 05 0c d0 bf fb 3b fa fe 1b 05 4b 1a fb 67 2c
       -3 5 12 -48 -65 -5 59 -6 -2 27 5 75 26 -5 103 44
000070 92 ef f0 0e 0c 3a 23 4a 4a c4 0e 08 6a 10 0c ee
       -110 -17 -16 14 12 58 35 74 74 -60 14 8 106 16 12 -18
000080 1b 8c 01 e1 35 c6 e5 14 07 34 d6 08 bf 25 2d 61
       27 -116 1 -31 53 -58 -27 20 7 52 -42 8 -65 37 45 97
000090 c6 0f 00 26 09 07 d2 03 e0 e7 48 2c 18 38 0b e5
       -58 15 0 38 9 7 -46 3 -32 -25 72 44 24 56 11 -27
0000a0 db dd dc 04 b3 16 d4 de fd d0 b3 27 2e 24 a5 06
       -37 -35 -36 4 -77 22 -44 -34 -3 -48 -77 39 46 36 -91 6
0000b0 ed 28 21 12 07 13 f5 f2 19 48 05 fd 35 d2 d7 a0
       -19 40 33 18 7 19 -11 -14 25 72 5 -3 53 -46 -41 -96
0000c0 f3 bd 34 19 a8 0e ef 37 f9 31 ad 07 39 d8 f9 05
       -13 -67 52 25 -88 14 -17 55 -7 49 -83 7 57 -40 -7 5
0000d0 e3 03 0c b9 ba 03 17 3d 97 c9 2c e9 f0 ef a0 f5
       -29 3 12 -71 -70 3 23 61 -105 -55 44 -23 -16 -17 -96 -11
0000e0 ee f6 cc 3b 38 c7 99 b1 36 d7 03 e0 b0 09 f5 44
       -18 -10 -52 59 56 -57 -103 -79 54 -41 3 -32 -80 9 -11 68
0000f0 1e 2f c4 81 3c e7 c4 c8 10 ff 12 27 df 01 09 ee
       30 47 -60 -127 60 -25 -60 -56 16 -1 18 39 -33 1 9 -18

sequential/model/block_13_depthwise_BN/FusedBatchNormV3;sequential/model/block_13_depthwise/depthwise i1 [1, 3, 3, 192]
000000 b0 67 70 ab b1 c3 6e b2 4c 53 be 5a 91 48 73 64
       -80 103 112 -85 -79 -61 110 -78 76 83 -66 90 -111 72 115 100
000010 b8 ac 56 9d 5a 59 6e 40 70 4c 44 c1 3e af 41 bc
       -72 -84 86 -99 90 89 110 64 112 76 68 -63 62 -81 65 -68
000020 6d 5c a0 b8 4a 53 b1 cf 99 ba aa 5a 49 b6 61 48
       109 92 -96 -72 74 83 -79 -49 -103 -70 -86 90 73 -74 97 72
000030 4b 6a ab 3f 61 61 60 4c 55 a4 74 6a bb 4f 4c b1
       75 106 -85 63 97 97 96 76 85 -92 116 106 -69 79 76 -79
000040 5e 5a 51 44 49 47 63 4f b2 4f 3c 50 6b 4e 43 bf
       94 90 81 68 73 71 99 79 -78 79 60 80 107 78 67 -65
000050 51 5d 42 b6 45 59 41 4b 4b a2 52 aa b3 5c c3 42
       81 93 66 -74 69 89 65 75 75 -94 82 -86 -77 92 -61 66
000060 c4 8a 53 4e 65 69 bf 5a 64 56 49 3c b1 86 57 9f
       -60 -118 83 78 101 105 -65 90 100 86 73 60 -79 -122 87 -97
000070 56 34 47 4e 4f 4d 94 53 b3 b6 b3 95 5b 49 63 59
       86 52 71 78 79 77 -108 83 -77 -74 -77 -107 91 73 99 89
000080 66 5e 5a b3 69 5f 57 55 83 3e 91 b8 6c bc 4e ae
       102 94 90 -77 105 95 87 85 -125 62 -111 -72 108 -68 78 -82
000090 4e b8 4f b2 b0 63 43 51 3a 5d 55 97 57 52 ae 65
       78 -72 79 -78 -80 99 67 81 58 93 85 -105 87 82 -82 101
0000a0 6e 4d 54 a4 4a 5a 55 45 75 40 bf 36 40 9c b8 a9
       110 77 84 -92 74 90 85 69 117 64 -65 54 64 -100 -72 -87
0000b0 55 51 6d f5 b8 5b 94 a6 55 c9 57 5c ae 59 49 74
       85 81 109 -11 -72 91 -108 -90 85 -55 87 92 -82 89 73 116
0000c0 a3 76 7f 9c a2 bc 7f a5 58 64 b5 61 81 57 79 dd
       -93 118 127 -100 -94 -68 127 -91 88 100 -75 97 -127 87 121 -35
0000d0 a2 97 68 92 68 6b 74 52 7f 5c 53 ae 54 9f 4c a8
       -94 -105 104 -110 104 107 116 82 127 92 83 -82 84 -97 76 -88
0000e0 77 6a 89 a4 59 64 a1 c3 92 a9 a1 66 59 aa 70 57
       119 106 -119 -92 89 100 -95 -61 -110 -87 -95 102 89 -86 112 87
0000f0 55 7f 9d 56 7b 7f 6f 60 66 99 af 7b a0 67 5c 9f
       85 127 -99 86 123 127 111 96 102 -103 -81 123 -96 103 92 -97

sequential/model/block_13_expand/Conv2D i1 [192, 1, 1, 32]
000000 ce dd 76 e5 81 c5 c7 36 90 fd bc 11 2c f5 df e1
       -50 -35 118 -27 -127 -59 -57 54 -112 -3 -68 17 44 -11 -33 -31
000010 bb 9d ac ec 36 bc d9 cd 28 4b d4 01 f7 0f 17 cf
       -69 -99 -84 -20 54 -68 -39 -51 40 75 -44 1 -9 15 23 -49
000020 f7 75 26 f2 a1 0a 3c d5 09 71 d5 81 2c 1f d3 29
       -9 117 38 -14 -95 10 60 -43 9 113 -43 -127 44 31 -45 41
000030 16 ce 4e e3 c0 15 21 cb c6 e3 3d 00 05 e9 2d f6
       22 -50 78 -29 -64 21 33 -53 -58 -29 61 0 5 -23 45 -10
000040 05 fc e5 d9 0b 20 f7 f9 f8 d4 f7 d0 0e f3 fd 15
       5 -4 -27 -39 11 32 -9 -7 -8 -44 -9 -48 14 -13 -3 21
000050 f0 00 0f a8 08 ef 05 f8 00 fa 11 1b 7f 1a f8 61
       -16 0 15 -88 8 -17 5 -8 0 -6 17 27 127 26 -8 97
000060 99 92 fd a3 9d 0f d8 fc 45 72 4e fd 25 e3 de 08
       -103 -110 -3 -93 -99 15 -40 -4 69 114 78 -3 37 -29 -34 8
000070 25 bb 3e ec 74 eb 2e 13 09 e3 35 8e b4 7f 54 ca
       37 -69 62 -20 116 -21 46 19 9 -29 53 -114 -76 127 84 -54
000080 17 0a 2c e9 46 e2 4c 23 05 00 f9 0d 04 f7 cc 01
       23 10 44 -23 70 -30 76 35 5 0 -7 13 4 -9 -52 1
000090 0b bf b6 ea 0e f8 fe ce 0c 5d f4 e2 39 35 c7 7f
       11 -65 -74 -22 14 -8 -2 -50 12 93 -12 -30 57 53 -57 127
0000a0 d6 ab c6 d3 ed bf dc f7 1e 31 29 02 e2 e1 ee 7f
       -42 -85 -58 -45 -19 -65 -36 -9 30 49 41 2 -30 -31 -18 127
0000b0 0a 06 e9 11 d1 07 ea eb df e5 40 ff cd 2e 05 04
       10 6 -23 17 -47 7 -22 -21 -33 -27 64 -1 -51 46 5 4
0000c0 e1 f2 eb de 49 17 3d e2 29 15 e6 d1 04 e9 39 f5
       -31 -14 -21 -34 73 23 61 -30 41 21 -26 -47 4 -23 57 -11
0000d0 d0 05 2a f0 7f 6b 27 02 1e e7 e9 58 15 09 eb 2e
       -48 5 42 -16 127 107 39 2 30 -25 -23 88 21 9 -21 46
0000e0 56 f2 27 0b ed fd 05 b0 09 a4 ed 0d 1d 0e e9 02
       86 -14 39 11 -19 -3 5 -80 9 -92 -19 13 29 14 -23 2
0000f0 24 0b fe 33 7f e8 f2 28 f2 d9 36 08 08 d7 1e 03
       36 11 -2 51 127 -24 -14 40 -14 -39 54 8 8 -41 30 3

sequential/model/block_12_project/Conv2D i1 [32, 1, 1, 192]
000000 0d d1 08 03 cd e8 2f 5c d2 34 07 04 1b 0f 06 22
       13 -47 8 3 -51 -24 47 92 -46 52 7 4 27 15 6 34
000010 08 ee a0 02 02 b3 1e 1f 08 12 be eb 32 46 1d f5
       8 -18 -96 2 2 -77 30 31 8 18 -66 -21 50 70 29 -11
000020 f1 f8 14 f9 f4 00 d0 f9 2d bd f9 0f fe 24 e7 f8
       -15 -8 20 -7 -12 0 -48 -7 45 -67 -7 15 -2 36 -25 -8
000030 d4 db ee 02 dd 00 3d 4c 18 1f f7 2f 8c 28 08 45
       -44 -37 -18 2 -35 0 61 76 24 31 -9 47 -116 40 8 69
000040 06 53 47 11 e0 03 cf 5a ef d0 ee 05 73 d7 e0 f0
       6 83 71 17 -32 3 -49 90 -17 -48 -18 5 115 -41 -32 -16
000050 16 f7 e3 05 1e ef fa 1d 4a 23 f9 13 0d df ff f4
       22 -9 -29 5 30 -17 -6 29 74 35 -7 19 13 -33 -1 -12
000060 a7 21 fa fc 0c b5 20 07 24 46 eb 43 e2 29 e2 ec
       -89 33 -6 -4 12 -75 32 7 36 70 -21 67 -30 41 -30 -20
000070 12 2d f6 e0 e3 ff 25 1a af 02 0d 0c 1e fc 2d fc
       18 45 -10 -32 -29 -1 37 26 -81 2 13 12 30 -4 45 -4
000080 f1 c6 0a ed f2 0e 18 df fe 0d e5 32 e1 64 f3 1c
       -15 -58 10 -19 -14 14 24 -33 -2 13 -27 50 -31 100 -13 28
000090 1a f0 3d 04 18 c5 fd d2 f7 f2 c6 4a 0e 14 ed f9
       26 -16 61 4 24 -59 -3 -46 -9 -14 -58 74 14 20 -19 -7
0000a0 17 2b 21 17 eb 26 f0 19 fa 1e d6 eb d7 f0 df 29
       23 43 33 23 -21 38 -16 25 -6 30 -42 -21 -41 -16 -33 41
0000b0 1b 1a 09 f5 7f 19 07 da df 2c 08 b3 f8 09 19 10
       27 26 9 -11 127 25 7 -38 -33 44 8 -77 -8 9 25 16
0000c0 fc f3 fc fb f9 24 25 01 1e 0d 26 e9 26 0a 22 f8
       -4 -13 -4 -5 -7 36 37 1 30 13 38 -23 38 10 34 -8
0000d0 0b 32 2c f5 14 ed f2 3b c2 14 58 f0 e7 e9 f8 14
       11 50 44 -11 20 -19 -14 59 -62 20 88 -16 -25 -23 -8 20
0000e0 e5 eb 12 e3 2b e2 20 e6 fe cb 07 e6 ed 3c 44 22
       -27 -21 18 -29 43 -30 32 -26 -2 -53 7 -26 -19 60 68 34
0000f0 e7 b0 c3 d1 e1 14 d7 1a f4 df b7 19 ec d7 1a 8b
       -25 -80 -61 -47 -31 20 -41 26 -12 -33 -73 25 -20 -41 26 -117

sequential/model/block_12_depthwise_BN/FusedBatchNormV3;sequential/model/block_12_depthwise/depthwise;sequential/model/block_13_depthwise/depthwise i1 [1, 3, 3, 192]
000000 12 15 d7 f1 e2 f0 9f 40 00 c1 14 ad d2 fc de fd
       18 21 -41 -15 -30 -16 -97 64 0 -63 20 -83 -46 -4 -34 -3
000010 2e 28 f2 2b 68 0c fb 10 15 f2 fb 14 01 e8 1d 03
       46 40 -14 43 104 12 -5 16 21 -14 -5 20 1 -24 29 3
000020 42 43 0b f6 23 3f 14 ba 12 1f d0 f1 0e f1 00 58
       66 67 11 -10 35 63 20 -70 18 31 -48 -15 14 -15 0 88
000030 11 14 10 02 0d fa db 16 e3 b7 d8 f7 ff ed b2 13
       17 20 16 2 13 -6 -37 22 -29 -73 -40 -9 -1 -19 -78 19
000040 00 f0 d9 f3 1e 11 08 d9 e8 2b 21 01 00 78 c5 04
       0 -16 -39 -13 30 17 8 -39 -24 43 33 1 0 120 -59 4
000050 08 2f fc 1f 58 38 be 10 ce f7 f7 08 08 d5 18 18
       8 47 -4 31 88 56 -66 16 -50 -9 -9 8 8 -43 24 24
000060 f6 02 2a 1c 16 f7 0d 44 26 d9 ff ca 17 ee fd ed
       -10 2 42 28 22 -9 13 68 38 -39 -1 -54 23 -18 -3 -19
000070 13 f4 f8 25 f3 05 35 ec 04 83 fc 2b c3 21 ed f9
       19 -12 -8 37 -13 5 53 -20 4 -125 -4 43 -61 33 -19 -7
000080 f2 2d fe cb 13 f5 f9 81 af 7f ee 20 13 26 16 f0
       -14 45 -2 -53 19 -11 -7 -127 -81 127 -18 32 19 38 22 -16
000090 f2 2b 27 10 0a 05 fb a7 0f f1 04 12 3e 15 00 06
       -14 43 39 16 10 5 -5 -89 15 -15 4 18 62 21 0 6
0000a0 1b 0b 23 ac d9 03 08 1c fe 10 e0 a7 ee 1c fd db
       27 11 35 -84 -39 3 8 28 -2 16 -32 -89 -18 28 -3 -37
0000b0 df d7 fb fd 04 28 0e 0a f8 fc 1f ef fe 21 d6 11
       -33 -41 -5 -3 4 40 14 10 -8 -4 31 -17 -2 33 -42 17
0000c0 0e f7 06 62 9a 01 ad 7f fe 00 36 7f d5 0e f8 e4
       14 -9 6 98 -102 1 -83 127 -2 0 54 127 -43 14 -8 -28
0000d0 14 6c f3 7f ad 04 f3 27 ed 81 ba 7f e8 9e ce d1
       20 108 -13 127 -83 4 -13 39 -19 -127 -70 127 -24 -98 -50 -47
0000e0 7f 7f 01 15 53 81 bc c0 de 0b e6 be d5 75 ec 50
       127 127 1 21 83 -127 -68 -64 -34 11 -26 -66 -43 117 -20 80
0000f0 50 fd f3 e1 44 00 93 7f be a0 0f 01 e7 77 b4 7f
       80 -3 -13 -31 68 0 -109 127 -66 -96 15 1 -25 119 -76 127

sequential/model/block_12_expand/Conv2D i1 [192, 1, 1, 32]
000000 e2 c9 40 48 ce fd fe dd f2 cc 00 18 a5 eb d2 7f
       -30 -55 64 72 -50 -3 -2 -35 -14 -52 0 24 -91 -21 -46 127
000010 0b 48 ec f6 26 c4 ef f3 22 f6 fd 32 fc 02 08 01
       11 72 -20 -10 38 -60 -17 -13 34 -10 -3 50 -4 2 8 1
000020 3a 2d 01 9d 27 ee ea fc d4 33 2e de 4a cf 7f 8c
       58 45 1 -99 39 -18 -22 -4 -44 51 46 -34 74 -49 127 -116
000030 c3 ff 2c 0c ce 3c 0c 1b 1c 9a f3 93 11 e4 e7 0e
       -61 -1 44 12 -50 60 12 27 28 -102 -13 -109 17 -28 -25 14
000040 db c4 ee ff 0c f3 b5 eb c4 35 3b ef f2 b9 2d cb
       -37 -60 -18 -1 12 -13 -75 -21 -60 53 59 -17 -14 -71 45 -53
000050 35 2d 15 81 2a ee c4 5a 03 2e f6 3f 04 fa 26 02
       53 45 21 -127 42 -18 -60 90 3 46 -10 63 4 -6 38 2
000060 02 3d 06 f5 f9 7f 07 da 06 21 c9 e7 09 47 f7 13
       2 61 6 -11 -7 127 7 -38 6 33 -55 -25 9 71 -9 19
000070 f0 16 1d fa ee f4 fd 3e 19 ba 02 ff 01 ea 06 0a
       -16 22 29 -6 -18 -12 -3 62 25 -70 2 -1 1 -22 6 10
000080 03 23 ef 14 2f e1 09 34 34 f4 1e 01 17 00 06 06
       3 35 -17 20 47 -31 9 52 52 -12 30 1 23 0 6 6
000090 1c 08 0b 26 ed e5 fa 09 81 08 ac f0 06 70 16 03
       28 8 11 38 -19 -27 -6 9 -127 8 -84 -16 6 112 22 3
0000a0 04 04 23 0a 08 81 0c ce ee fc f5 19 c6 11 f7 3f
       4 4 35 10 8 -127 12 -50 -18 -4 -11 25 -58 17 -9 63
0000b0 ff 39 03 f3 0d f6 eb 56 2e fc 1b ef 03 fe fb 0a
       -1 57 3 -13 13 -10 -21 86 46 -4 27 -17 3 -2 -5 10
0000c0 ec 67 e3 5a f3 8c c3 1d e6 b7 19 2d 36 69 12 d7
       -20 103 -29 90 -13 -116 -61 29 -26 -73 25 45 54 105 18 -41
0000d0 ff a2 ef ba 0f 08 e2 be 1e a3 35 7f e7 b2 ee da
       -1 -94 -17 -70 15 8 -30 -66 30 -93 53 127 -25 -78 -18 -38
0000e0 36 01 50 c5 23 1a 36 1e e4 7b b4 d1 2b 2b 21 fb
       54 1 80 -59 35 26 54 30 -28 123 -76 -47 43 43 33 -5
0000f0 d2 c9 48 54 f1 c8 e8 d7 c4 92 31 e2 b4 41 7f e6
       -46 -55 72 84 -15 -56 -24 -41 -60 -110 49 -30 -76 65 127 -26

sequential/model/block_11_project/Conv2D i1 [32, 1, 1, 192]
000000 dc 0d fc 10 e7 ea 06 f1 f1 15 0e d1 e7 14 f4 fa
       -36 13 -4 16 -25 -22 6 -15 -15 21 14 -47 -25 20 -12 -6
000010 fd fc 19 27 20 f7 12 05 f9 13 10 d1 11 f4 f0 e1
       -3 -4 25 39 32 -9 18 5 -7 19 16 -47 17 -12 -16 -31
000020 17 59 1b 12 da 28 be 12 cc 00 e9 fe 0b 10 04 e8
       23 89 27 18 -38 40 -66 18 -52 0 -23 -2 11 16 4 -24
000030 ee e2 48 2a dd 34 f5 fb f8 d8 b1 ff 02 f3 fd e8
       -18 -30 72 42 -35 52 -11 -5 -8 -40 -79 -1 2 -13 -3 -24
000040 31 38 02 fd dc f3 d6 db a6 e2 f0 dd 02 02 04 20
       49 56 2 -3 -36 -13 -42 -37 -90 -30 -16 -35 2 2 4 32
000050 f5 fc 05 e6 0a b6 51 14 d6 28 1e ca eb f0 e4 c4
       -11 -4 5 -26 10 -74 81 20 -42 40 30 -54 -21 -16 -28 -60
000060 97 36 0b 0f 05 f3 1e e2 1a 18 14 1f 41 fa 2a eb
       -105 54 11 15 5 -13 30 -30 26 24 20 31 65 -6 42 -21
000070 19 53 27 16 00 32 7f d1 fe 4f 09 18 f3 c6 00 d8
       25 83 39 22 0 50 127 -47 -2 79 9 24 -13 -58 0 -40
000080 d4 ea 33 14 e5 0e ed 17 ea ff e2 ed 20 07 14 0b
       -44 -22 51 20 -27 14 -19 23 -22 -1 -30 -19 32 7 20 11
000090 40 19 e4 f4 da dd 41 cc ff f6 27 14 14 eb e2 2a
       64 25 -28 -12 -38 -35 65 -52 -1 -10 39 20 20 -21 -30 42
0000a0 d8 f9 be dc 47 fe df b2 f8 e7 e4 4b 27 04 11 2e
       -40 -7 -66 -36 71 -2 -33 -78 -8 -25 -28 75 39 4 17 46
0000b0 fd fe 12 19 1b ce 06 f1 02 d7 08 0b 39 56 fb f9
       -3 -2 18 25 27 -50 6 -15 2 -41 8 11 57 86 -5 -7
0000c0 3d 0b fa 04 f3 ef 07 7f 26 e1 28 c9 fd f6 ef e5
       61 11 -6 4 -13 -17 7 127 38 -31 40 -55 -3 -10 -17 -27
0000d0 2f f5 e3 4a 1b d4 10 bb 3f de d5 e2 14 dc 3d c7
       47 -11 -29 74 27 -44 16 -69 63 -34 -43 -30 20 -36 61 -57
0000e0 eb 39 e4 2b d7 1b d8 e6 fb e3 b7 29 0d e2 ec 28
       -21 57 -28 43 -41 27 -40 -26 -5 -29 -73 41 13 -30 -20 40
0000f0 fe dc dd f0 dc d3 43 00 bd e5 55 e9 ea ff 0c 16
       -2 -36 -35 -16 -36 -45 67 0 -67 -27 85 -23 -22 -1 12 22

sequential/model/block_11_depthwise_BN/FusedBatchNormV3;sequential/model/block_11_depthwise/depthwise;sequential/model/block_13_depthwise/depthwise i1 [1, 3, 3, 192]
000000 fd d6 28 19 6f 81 fe e2 09 0d 18 04 3e 19 f1 0b
       -3 -42 40 25 111 -127 -2 -30 9 13 24 4 62 25 -15 11
000010 3b 2c ea d8 fe 0f 27 7c c8 2f 20 1b 1a 03 fa 14
       59 44 -22 -40 -2 15 39 124 -56 47 32 27 26 3 -6 20
000020 df f3 fc 08 fb 3f 21 4b 0c df 2e f4 06 df 08 ff
       -33 -13 -4 8 -5 63 33 75 12 -33 46 -12 6 -33 8 -1
000030 e9 cf 9f 0e 19 f9 ed 4f fc 37 2c b8 18 f3 0d fe
       -23 -49 -97 14 25 -7 -19 79 -4 55 44 -72 24 -13 13 -2
000040 01 1a 2a 44 03 c6 bf 00 cc e5 92 ef f6 ef fb 1c
       1 26 42 68 3 -58 -65 0 -52 -27 -110 -17 -10 -17 -5 28
000050 02 f4 b6 d2 04 e4 de b8 42 1c 10 03 ff 2b 0f f1
       2 -12 -74 -46 4 -28 -34 -72 66 28 16 3 -1 43 15 -15
000060 e3 e2 b3 18 93 de 11 14 4e 1b c0 ea f0 ff ed 2a
       -29 -30 -77 24 -109 -34 17 20 78 27 -64 -22 -16 -1 -19 42
000070 ef 0c fe d4 14 1b 02 e5 c7 0f e9 bc 29 2c fa 34
       -17 12 -2 -44 20 27 2 -27 -57 15 -23 -68 41 44 -6 52
000080 60 0e 02 cf 32 e6 00 e3 fb db 34 04 b0 f5 03 81
       96 14 2 -49 50 -26 0 -29 -5 -37 52 4 -80 -11 3 -127
000090 14 f5 0b e0 f5 2d 30 2d 11 f3 10 f3 0b 2e 09 5a
       20 -11 11 -32 -11 45 48 45 17 -13 16 -13 11 46 9 90
0000a0 0a 32 b6 d5 fd a0 67 13 9c de e4 6c e1 19 16 a7
       10 50 -74 -43 -3 -96 103 19 -100 -34 -28 108 -31 25 22 -89
0000b0 1c 14 ed 00 1b c4 0d 81 1e 02 3f 1f 3e f1 c0 ed
       28 20 -19 0 27 -60 13 -127 30 2 63 31 62 -15 -64 -19
0000c0 f1 f7 ea e8 ff 7b fa 7f 02 f1 3b c3 81 ed 0d 38
       -15 -9 -22 -24 -1 123 -6 127 2 -15 59 -61 -127 -19 13 56
0000d0 7f 2c f8 81 a5 9e 1e 7f 4a 7f 9f e6 7f 7f e3 ed
       127 44 -8 -127 -91 -98 30 127 74 127 -97 -26 127 127 -29 -19
0000e0 7f e7 c9 7f 7f 7f d6 c9 e4 81 7f 00 c7 24 f9 ef
       127 -25 -55 127 127 127 -42 -55 -28 -127 127 0 -57 36 -7 -17
0000f0 01 d8 ac 7f e9 a4 7f 38 7f 7f 4c d7 eb e4 f9 e3
       1 -40 -84 127 -23 -92 127 56 127 127 76 -41 -21 -28 -7 -29

sequential/model/block_11_expand/Conv2D i1 [192, 1, 1, 32]
000000 a1 db cc ef f9 1f 03 38 f9 d7 d5 25 bd e2 0e 33
       -95 -37 -52 -17 -7 31 3 56 -7 -41 -43 37 -67 -30 14 51
000010 07 34 21 02 c7 fc d7 7f a6 47 e4 27 f7 5a 38 fe
       7 52 33 2 -57 -4 -41 127 -90 71 -28 39 -9 90 56 -2
000020 07 8e fd d4 cd f0 07 45 fe 1d 0b f4 4b 81 0c c6
       7 -114 -3 -44 -51 -16 7 69 -2 29 11 -12 75 -127 12 -58
000030 f0 c0 f3 ff 21 d8 14 f7 e8 d6 01 e5 e7 16 1e 05
       -16 -64 -13 -1 33 -40 20 -9 -24 -42 1 -27 -25 22 30 5
000040 f7 1f f5 f2 e8 c9 06 61 f8 19 b1 f9 ac b6 e4 f9
       -9 31 -11 -14 -24 -55 6 97 -8 25 -79 -7 -84 -74 -28 -7
000050 ed 81 d6 00 0a f6 f4 64 c7 32 01 df f8 e2 f6 ee
       -19 -127 -42 0 10 -10 -12 100 -57 50 1 -33 -8 -30 -10 -18
000060 f8 13 eb fe 7f 0e d8 cb 19 b1 40 4e d6 e7 2e 23
       -8 19 -21 -2 127 14 -40 -53 25 -79 64 78 -42 -25 46 35
000070 fd 2c 39 58 bb 4f 64 15 eb 1b fd 3b d5 ce a7 b6
       -3 44 57 88 -69 79 100 21 -21 27 -3 59 -43 -50 -89 -74
000080 0d 8b e9 42 2d 2e e2 9a 35 e5 c3 04 f0 bb 13 57
       13 -117 -23 66 45 46 -30 -102 53 -27 -61 4 -16 -69 19 87
000090 38 25 05 19 ff de f0 7f 0e 1a e6 5e 29 68 39 14
       56 37 5 25 -1 -34 -16 127 14 26 -26 94 41 104 57 20
0000a0 fe cd dc 39 07 07 fa ca f0 08 0d 07 26 ca 7f 06
       -2 -51 -36 57 7 7 -6 -54 -16 8 13 7 38 -54 127 6
0000b0 ef be ff e9 b2 1d 07 2b fb 0e 11 f8 14 d8 f9 05
       -17 -66 -1 -23 -78 29 7 43 -5 14 17 -8 20 -40 -7 5
0000c0 f9 31 09 d3 0a 12 2c 26 2a 2d c2 76 bd a7 03 ff
       -7 49 9 -45 10 18 44 38 42 45 -62 118 -67 -89 3 -1
0000d0 b6 d5 cb 9b 34 e1 f6 7f bc ed 1c f5 c3 c9 0e d4
       -74 -43 -53 -101 52 -31 -10 127 -68 -19 28 -11 -61 -55 14 -44
0000e0 be f0 c8 02 13 75 f6 d1 17 f8 81 07 d7 06 af a4
       -66 -16 -56 2 19 117 -10 -47 23 -8 -127 7 -41 6 -81 -92
0000f0 1e a5 50 f7 ef 0f cd 42 18 14 f1 22 0a b5 3a f0
       30 -91 80 -9 -17 15 -51 66 24 20 -15 34 10 -75 58 -16

sequential/model/block_10_project/Conv2D i1 [32, 1, 1, 144]
000000 29 09 fc 30 f0 da 07 20 0f f1 eb f0 06 f5 d2 e0
       41 9 -4 48 -16 -38 7 32 15 -15 -21 -16 6 -11 -46 -32
000010 f8 02 fe 14 ec e7 ee fc 06 01 0a e9 fd 04 d4 05
       -8 2 -2 20 -20 -25 -18 -4 6 1 10 -23 -3 4 -44 5
000020 06 eb fa 04 20 10 ec 0b 09 06 1e 0b 0d 0d 10 26
       6 -21 -6 4 32 16 -20 11 9 6 30 11 13 13 16 38
000030 f4 13 e7 04 f1 f1 01 ee 04 0e 08 19 14 1a 0c 13
       -12 19 -25 4 -15 -15 1 -18 4 14 8 25 20 26 12 19
000040 e9 43 df e1 08 fb 3b 09 08 e0 f5 fb ef 17 ee 01
       -23 67 -33 -31 8 -5 59 9 8 -32 -11 -5 -17 23 -18 1
000050 15 32 10 49 fb 07 f9 0c 1f 05 06 13 0a 20 4a 09
       21 50 16 73 -5 7 -7 12 31 5 6 19 10 32 74 9
000060 00 09 e3 07 f8 1a 06 08 00 ff 0d ed f5 49 39 01
       0 9 -29 7 -8 26 6 8 0 -1 13 -19 -11 73 57 1
000070 f0 1d f4 e3 0c ff 07 05 1e eb 05 da f0 f7 81 f3
       -16 29 -12 -29 12 -1 7 5 30 -21 5 -38 -16 -9 -127 -13
000080 18 f0 11 26 05 2b f5 f3 f8 e2 f2 f5 fd 21 ea 26
       24 -16 17 38 5 43 -11 -13 -8 -30 -14 -11 -3 33 -22 38
000090 1d 00 f2 1f f5 b2 09 f1 e4 d0 18 74 f3 f4 0f d7
       29 0 -14 31 -11 -78 9 -15 -28 -48 24 116 -13 -12 15 -41
0000a0 fa eb 05 27 bb 1c 20 fe 08 c6 18 25 08 ed 3d 2f
       -6 -21 5 39 -69 28 32 -2 8 -58 24 37 8 -19 61 47
0000b0 f8 17 fb dd 2b d7 c9 e9 f9 15 4c 22 fb fd 2a f1
       -8 23 -5 -35 43 -41 -55 -23 -7 21 76 34 -5 -3 42 -15
0000c0 f2 ff 69 d1 db 01 07 20 2d 0b e7 05 fb f1 52 1b
       -14 -1 105 -47 -37 1 7 32 45 11 -25 5 -5 -15 82 27
0000d0 2c d1 1c fe 42 01 ba 7d fe 02 1d 41 1e f6 04 25
       44 -47 28 -2 66 1 -70 125 -2 2 29 65 30 -10 4 37
0000e0 f3 18 e3 02 42 d7 fe 5f 15 c4 29 02 4f 1d d2 20
       -13 24 -29 2 66 -41 -2 95 21 -60 41 2 79 29 -46 32
0000f0 10 34 a8 06 fc f0 0f 47 f6 0b 93 dc ed f9 78 d1
       16 52 -88 6 -4 -16 15 71 -10 11 -109 -36 -19 -7 120 -47

sequential/model/block_10_depthwise_BN/FusedBatchNormV3;sequential/model/block_10_depthwise/depthwise i1 [1, 3, 3, 144]
000000 10 7f ff 03 f2 03 09 dc f7 01 fb e3 1a 02 fc e3
       16 127 -1 3 -14 3 9 -36 -9 1 -5 -29 26 2 -4 -29
000010 27 08 f1 0d 00 02 0d fa e7 d6 db 32 eb 14 02 0b
       39 8 -15 13 0 2 13 -6 -25 -42 -37 50 -21 20 2 11
000020 f5 fc fa fd f9 05 0b 02 0a 2a 1d 06 09 fd f5 05
       -11 -4 -6 -3 -7 5 11 2 10 42 29 6 9 -3 -11 5
000030 d7 fb df ff 02 12 03 ef 11 81 0a fb 01 1d 04 0e
       -41 -5 -33 -1 2 18 3 -17 17 -127 10 -5 1 29 4 14
000040 0a ef f5 fe 75 04 04 00 01 00 19 1d 03 2a ef 12
       10 -17 -11 -2 117 4 4 0 1 0 25 29 3 42 -17 18
000050 f6 0c e5 09 bb fc 7f 13 99 f6 13 fc ff 04 ff ec
       -10 12 -27 9 -69 -4 127 19 -103 -10 19 -4 -1 4 -1 -20
000060 02 dd 00 f3 2b 0c e3 81 f3 fb 25 f9 ec 00 04 d1
       2 -35 0 -13 43 12 -29 -127 -13 -5 37 -7 -20 0 4 -47
000070 02 02 f2 06 1e e9 dc f8 02 ff 01 19 fe f5 fe ff
       2 2 -14 6 30 -23 -36 -8 2 -1 1 25 -2 -11 -2 -1
000080 f5 fe f5 f8 f2 04 02 13 e3 e4 08 ce f2 f8 f1 f8
       -11 -2 -11 -8 -14 4 2 19 -29 -28 8 -50 -14 -8 -15 -8
000090 21 d6 fc 15 d3 19 f0 9d f5 22 2c cd 7f 15 00 ce
       33 -42 -4 21 -45 25 -16 -99 -11 34 44 -51 127 21 0 -50
0000a0 d9 28 f9 30 27 04 30 18 1f dd a2 7f 1b 1d f9 10
       -39 40 -7 48 39 4 48 24 31 -35 -94 127 27 29 -7 16
0000b0 2c 10 1f 12 f8 23 2d 30 16 30 4f d8 37 17 75 bb
       44 16 31 18 -8 35 45 48 22 48 79 -40 55 23 117 -69
0000c0 cf 1f ba 1b 00 a6 1a 23 36 97 22 dd e5 2e 50 1f
       -49 31 -70 27 0 -90 26 35 54 -105 34 -35 -27 46 80 31
0000d0 33 d5 05 02 d5 d6 1f 14 ff 13 3f 46 0f 7f da e9
       51 -43 5 2 -43 -42 31 20 -1 19 63 70 15 127 -38 -23
0000e0 f9 33 b7 0d 97 17 c5 22 97 28 4b eb 09 fe f2 ae
       -7 51 -73 13 -105 23 -59 34 -105 40 75 -21 9 -2 -14 -82
0000f0 0d a7 f4 c9 e1 21 17 1b 0c 0f 7f 3f e5 11 39 18
       13 -89 -12 -55 -31 33 23 27 12 15 127 63 -27 17 57 24

sequential/model/block_10_expand/Conv2D i1 [144, 1, 1, 24]
000000 fe 02 ef 15 31 9f ea b9 0d e0 a2 30 d1 d1 05 d8
       -2 2 -17 21 49 -97 -22 -71 13 -32 -94 48 -47 -47 5 -40
000010 32 d9 05 81 2e be ab f6 fe 72 ce 99 e1 eb eb 31
       50 -39 5 -127 46 -66 -85 -10 -2 114 -50 -103 -31 -21 -21 49
000020 ad 81 25 f9 b9 ff 22 ed f6 a6 1d 28 65 fe 4f 23
       -83 -127 37 -7 -71 -1 34 -19 -10 -90 29 40 101 -2 79 35
000030 5e 6c 11 f6 26 d1 4f d5 fd ce 00 2e 2b 7f fa 27
       94 108 17 -10 38 -47 79 -43 -3 -50 0 46 43 127 -6 39
000040 0e ca 0c 11 d5 13 b8 54 f3 fb 7f f6 ae 0e 11 e5
       14 -54 12 17 -43 19 -72 84 -13 -5 127 -10 -82 14 17 -27
000050 24 e6 11 de f2 50 00 d8 16 18 0f 1b f8 f7 f0 25
       36 -26 17 -34 -14 80 0 -40 22 24 15 27 -8 -9 -16 37
000060 7f f8 cb e6 bf fa 2f 32 f9 08 02 12 c1 1f e0 f4
       127 -8 -53 -26 -65 -6 47 50 -7 8 2 18 -63 31 -32 -12
000070 d3 58 fb 12 25 97 da f1 35 12 f4 0b e5 32 19 15
       -45 88 -5 18 37 -105 -38 -15 53 18 -12 11 -27 50 25 21
000080 d9 e9 72 34 28 7f 62 32 2e 1e eb 28 c3 2f cf 16
       -39 -23 114 52 40 127 98 50 46 30 -21 40 -61 47 -49 22
000090 ec e7 1c 15 e5 4a 01 10 04 0b 08 7f d4 12 eb d8
       -20 -25 28 21 -27 74 1 16 4 11 8 127 -44 18 -21 -40
0000a0 23 02 ef 21 0e dd 05 2a f3 3e 0d 14 0a 9e 14 24
       35 2 -17 33 14 -35 5 42 -13 62 13 20 10 -98 20 36
0000b0 cd fd b9 35 42 2b cb 08 7f 18 f4 3d 2b cf 50 21
       -51 -3 -71 53 66 43 -53 8 127 24 -12 61 43 -49 80 33
0000c0 fc 04 27 03 1a 0d 7f 0a 2f f6 20 03 44 c0 1d ff
       -4 4 39 3 26 13 127 10 47 -10 32 3 68 -64 29 -1
0000d0 08 0c 03 ff 1f f0 fc 17 18 01 34 25 f5 7f 2a c1
       8 12 3 -1 31 -16 -4 23 24 1 52 37 -11 127 42 -63
0000e0 e9 f8 f0 2a 13 17 f7 22 ef d9 fe 0f 18 e1 f0 1b
       -23 -8 -16 42 19 23 -9 34 -17 -39 -2 15 24 -31 -16 27
0000f0 57 02 01 ec 1b 1b f5 03 35 04 f5 7f fa b8 f8 18
       87 2 1 -20 27 27 -11 3 53 4 -11 127 -6 -72 -8 24
